weights/conv_weights0.npy (npy, 7280 bytes, 1 tensors)

array f4 [100, 2, 3, 3]
000000 05 c7 f5 3c 4c 4f 56 bb 98 29 0b 3e ae ab 5c 3e
       0.030002126 -0.0032701073 0.13590086 0.21549866
000010 d4 f7 79 3d b7 1c 2f be 34 ae 0c bc 1c a5 19 be
       0.061027363 -0.17100798 -0.008586455 -0.1500439
000020 16 56 19 be 13 a3 d3 bd ad 2b 7f be 04 aa 1d 3e
       -0.14974245 -0.10333838 -0.24919005 0.15396887
000030 d4 ea 60 be 1b c0 13 3d 34 c6 23 be 94 6f c6 bc
       -0.2196458 0.036071878 -0.15993577 -0.024223126
000040 4e 6c 94 3d 40 67 57 3e cb eb b1 3c a1 92 44 be
       0.0724722 0.2103548 0.02171888 -0.1919656
000050 e9 3c d6 bd 73 02 14 be 77 0a 4e bd 66 8d b6 bc
       -0.104608364 -0.1445406 -0.05030295 -0.02228422
000060 6d bc 54 bd df bd b7 3c 1b 0c 4e bd 34 2f 11 be
       -0.05193751 0.022429405 -0.050304513 -0.14178163
000070 b3 75 c7 bd 4c 96 97 3d e3 72 47 be da cb 45 be
       -0.09739246 0.07401714 -0.1947742 -0.19316044
000080 30 44 29 3e 9c 2c 4d 3e 55 d9 d6 bd e6 82 3b be
       0.16529918 0.20036548 -0.104906715 -0.18311653
000090 a0 2c 8f 3d 49 b3 d5 3d 9e f9 23 3e f0 83 01 bd
       0.069909334 0.104345866 0.1601319 -0.031619966
0000a0 67 34 58 be 26 88 0b 3e d1 35 8e bc ee 86 04 be
       -0.2111374 0.13626155 -0.017359646 -0.12942097
0000b0 84 5a 01 3e 19 c2 fe bd de 57 09 3e d0 55 10 be
       0.12632185 -0.12439365 0.13412425 -0.14095235
0000c0 9d 68 2d be 35 ba 8a bd 52 16 33 3e 52 56 1b 3e
       -0.16934438 -0.067737974 0.17488983 0.15169647
0000d0 c6 0a f0 bd 66 f3 21 3e 2e e9 62 bd 5e d8 c1 3d
       -0.11720805 0.15815505 -0.05539816 0.09465097
0000e0 39 cc d2 3c b0 e3 42 3e d4 7e e1 3d 61 a0 7c 3e
       0.025732147 0.19032168 0.11010519 0.24670555
0000f0 8f 04 04 be d2 7b c3 3b 10 29 1c bd 26 59 84 bd
       -0.12892364 0.0059656883 -0.038125098 -0.06462316
000100 9d e4 95 bc 82 58 9d bd f2 4d 62 be 1c a9 60 be
       -0.018297488 -0.07682897 -0.22100046 -0.2193951
000110 38 b2 cc 3d 0c 8e 5d be 96 9b 34 3e d1 2d c9 bd
       0.0999493 -0.21636218 0.17637476 -0.09823192
000120 ae ca e4 3d e6 ef 58 be 7c 9b e2 bc d9 a8 61 3e
       0.111714706 -0.21185264 -0.027662031 0.22037067
000130 15 1e 41 3e 19 ba 5f 3e 3e e5 2d be 76 06 22 be
       0.18859132 0.21848334 -0.1698198 -0.15822777
000140 5f 80 de bd b6 fb 06 3d 7c a5 10 3d 65 70 c0 bd
       -0.108643286 0.032954894 0.03531407 -0.093964376
000150 73 32 3b be a8 a0 36 be a1 ea 9d bc 1c 50 d6 3d
       -0.18280964 -0.17834723 -0.019276919 0.104644984
000160 5b a9 07 3e 2b 57 27 bd 8d bf 2b bd 19 b3 a3 bd
       0.13248198 -0.040854614 -0.041930724 -0.079931445
000170 84 74 bc 3d 20 46 18 be be cb fa bd 51 b6 5a be
       0.09201911 -0.148705 -0.12245892 -0.2135861
000180 de 13 5b 3d 41 c6 29 be e3 a9 43 be 24 ac f3 3d
       0.053485744 -0.16579534 -0.19107775 0.118980676
000190 71 93 00 3e dd d4 62 be ab 35 53 3e 86 bc 03 bd
       0.12556244 -0.22151513 0.20625941 -0.03216221
0001a0 45 31 2c 3e e0 9a 97 bd a4 68 fa 3b 4d 9e f2 3d
       0.1681567 -0.07402587 0.0076418687 0.118466
0001b0 0c 02 4f 3d c8 c5 23 3e bc ec 9a bd f3 2a f2 bd
       0.05053906 0.15993416 -0.07564685 -0.11824598
0001c0 1a 6b 94 bd 35 dc 16 be 0e 87 1b 3e 0f e5 1d 3e
       -0.072469905 -0.1473244 0.15188238 0.1541941
0001d0 fd c3 b0 3d 8f 42 54 be 9a ed 86 bc f2 89 e5 bd
       0.08631132 -0.20728515 -0.01647072 -0.112079516
0001e0 bc 01 ce bd dd 64 44 3e 26 07 33 bd 32 64 19 3d
       -0.100589246 0.19179101 -0.04370799 0.03744907
0001f0 10 8d 31 be e3 2a 8b bc ec ef ee 3d 5e 7c 1b be
       -0.17338967 -0.016988223 0.11666855 -0.15184161
000200 a1 33 79 3d c7 2c 26 be e9 a5 13 bd 46 3a e1 3d
       0.060840253 -0.16228019 -0.036046896 0.10997443
000210 e4 7c ec bd a9 b6 d4 bd 80 39 d6 bc 1d e6 5b 3e
       -0.115472585 -0.10386402 -0.026150465 0.214745
000220 cd 17 19 be da 26 a2 3d e9 35 37 bd 13 80 35 be
       -0.14950486 0.079175666 -0.044729147 -0.17724638
000230 d5 86 91 bd 44 1a 9d 3d 86 a6 cd 3d 93 80 c4 3d
       -0.07105795 0.076710254 0.100415275 0.09594836
000240 5a 7e 20 be 1e 73 dd bc 07 16 05 3e d8 52 8b 3e
       -0.156732 -0.027032431 0.12996684 0.27211642
000250 35 88 4d be 4c d6 1a 3e 21 ef 3e 3d 50 f2 70 bd
       -0.2007149 0.1512081 0.04661477 -0.058824837
000260 90 02 8b 3d d3 71 e2 3d 48 70 71 3e 43 29 07 3e
       0.06787598 0.110568665 0.23577988 0.13199334
000270 aa 22 3a 3c 8c 9c 00 bd 4f d6 08 3e 82 97 f1 bd
       0.011360804 -0.031399295 0.13363002 -0.11796476
000280 ff fc 33 be 14 6d 1f be dd 9a b6 bd 95 4e 4d 3e
       -0.17576979 -0.15568954 -0.089162566 0.20049508
000290 8a b2 3b be f3 47 0c 3e 27 25 b1 3d ad 08 2c be
       -0.18329826 0.13699321 0.08649664 -0.16800185
0002a0 84 6f 05 3e a1 b0 ec 3d 1b 5f 0b be 56 1a 25 be
       0.13030821 0.11557127 -0.13610499 -0.16123328
0002b0 87 42 f8 bd d4 83 96 3d e7 d1 a9 bd 7e fb dd 3d
       -0.12122064 0.07349363 -0.08291989 0.10838984
0002c0 22 b2 00 be 88 35 5b bd 8a ca e2 3c 24 9d 4d 3d
       -0.12567952 -0.05351785 0.027684469 0.05019869
0002d0 c6 63 94 3d e3 40 2c 3e 99 e0 b1 bd 2b 1d 44 be
       0.07245593 0.16821627 -0.08685417 -0.19151752
0002e0 47 ac dd 3d 4f e3 2f 3e 1a d3 87 bd 4b 81 13 be
       0.10823875 0.17176555 -0.06632061 -0.1440479
0002f0 e3 ea 28 be b5 bd 2d bc f9 40 28 be 0b 96 19 be
       -0.16495852 -0.010604312 -0.16431035 -0.14998643
000300 79 bc 3a 3e ed 15 4f be e7 f7 55 be 7e 6f 7d 3e
       0.18235959 -0.20223208 -0.20895348 0.24749562
000310 fb f2 0e be 6f cc d6 bc 09 c8 a4 3d 94 ec b6 3d
       -0.13959877 -0.026220528 0.08045966 0.089318424
000320 8e 1b f0 bc ea b9 10 be 68 b9 00 be 60 04 e1 3b
       -0.029310014 -0.1413342 -0.12570727 0.0068669766
000330 c5 56 5b 3e bb bf 00 3e 9a 6a 67 be 24 a7 f9 3d
       0.21419819 0.1257314 -0.22599259 0.12190083
000340 59 3c 1e 3d 5f 88 59 be bf e9 f6 bb 08 fa 2b be
       0.03863177 -0.21243428 -0.007535189 -0.16794598
000350 0b 7d 56 3e 5d 7e 18 bd d2 04 b4 3d bc 9f 06 bd
       0.20946138 -0.037229884 0.08789982 -0.03286718
000360 9b 42 b0 bd 4e 01 bd bd dc 54 bd bd 9d c3 ba 3d
       -0.08606454 -0.092287645 -0.09244701 0.091193415
000370 64 75 90 bd ce 27 08 be 1b 1a c9 bd 05 8b a9 bc
       -0.070536405 -0.13296434 -0.09819432 -0.020696172
000380 14 99 bb 3c b1 ab 26 be 96 6e f2 3d 1f eb ea 3d
       0.022900142 -0.16276433 0.11837499 0.11470627
000390 12 dd 26 3c 8e 5f d6 3d 5e 1f 66 3e af 65 22 bd
       0.010184543 0.10467444 0.22472903 -0.039647754
0003a0 45 ef cd bb 6d 2d 1b be b2 fd 27 3e db 64 5d be
       -0.0062846267 -0.15154047 0.16405371 -0.21620505
0003b0 9e 16 db bc a4 ca 7d 3d 62 9a 29 be 5c c7 00 be
       -0.026744183 0.06196083 -0.16562799 -0.1257605
0003c0 6b 21 49 bd a7 b9 16 be 2c c7 e0 3d d0 57 64 bc
       -0.049104135 -0.14719258 0.10975489 -0.013936952
0003d0 f0 f3 b7 3d ac fa 81 3d d5 15 00 be f5 f9 11 be
       0.08982074 0.0634664 -0.12508328 -0.14255507
0003e0 d8 49 dd 3d fc 53 a7 bd ab 6e 02 be 44 73 8e bc
       0.108051 -0.081703156 -0.12737529 -0.017388947
0003f0 0e d1 2a be 75 af 06 3b 1f 8f 80 bc 96 e5 5a bd
       -0.1668131 0.0020551358 -0.015693245 -0.053441606
