weights/dense_weights0.npy (npy, 780 bytes, 1 tensors)

array f4 [175, 1]
0	0x3cbe05c7	0.023196114
1	0xbd76c568	-0.060246855
2	0x3cdc7cb2	0.026914928
3	0xbbca1e65	-0.006168174
4	0x3d338f49	0.04383782
5	0xbd8d16a4	-0.06889084
6	0xbd1dfee3	-0.038573157
7	0xbd1ac5c2	-0.037786253
8	0xbcec6635	-0.02885733
9	0x3d876a9b	0.0661213
10	0x3d5c2253	0.05374367
11	0x3d38f0e9	0.045151625
12	0xbbcf54f2	-0.006327265
13	0xbcabe3a3	-0.02098257
14	0x3d65a083	0.05606128
15	0xbd408a92	-0.04700715
16	0xbd7ca913	-0.06168468
17	0x3be55c0c	0.0069994982
18	0x3ddbe4c1	0.10736991
19	0x3df5c594	0.12000576
20	0xbe3a1cf0	-0.18175101
21	0x3de10c25	0.109886445
22	0xbdcc0668	-0.099621594
23	0x3e2a1455	0.16609319
24	0x3b938a35	0.0045025595
25	0x3de3d63a	0.11124845
26	0xbd813e81	-0.0631075
27	0x3dfa3d21	0.12218691
28	0xbdffb36a	-0.124853924
29	0xbdac9d94	-0.08428493
30	0x3e3aefe2	0.1825557
31	0xbdaec7a0	-0.08534169
32	0x3e257ca8	0.16160834
33	0x3e08d3d6	0.13362059
34	0x3e17f224	0.14838463
35	0x3d0b6d2e	0.03403967
36	0x3d1c8cea	0.038220324
37	0x3ca95d91	0.020674499
38	0xbdbf0a61	-0.093281515
39	0xbde58312	-0.1120664
40	0x3d48fd08	0.049069434
41	0xbdab0466	-0.08350448
42	0xbe2d8743	-0.1694613
43	0xbe09d49d	-0.13460012
44	0xbddcb0fd	-0.10775945
45	0xbdfaae4f	-0.12240278
46	0xbc92e425	-0.017931053
47	0xbd2b8c67	-0.041881945
48	0xbdc08b0b	-0.0940152
49	0x3ca8b720	0.020595133
50	0xbe136ac1	-0.14396192
51	0xbca5a3a3	-0.02021963
52	0x3e2ab4b7	0.166705
53	0x3d252e8e	0.0403276
54	0xbdfebec7	-0.12438732
55	0xba9f3a67	-0.0012148143
56	0x3d8dd349	0.06925065
57	0xbd104d94	-0.035230234
58	0x3da5490d	0.08070574
59	0x3b49b189	0.0030775985
60	0x3e02efdc	0.12786812
61	0xbe1b2af0	-0.15153098
62	0xbe148ce1	-0.14506866
63	0xbd050c3b	-0.032482367
64	0x3d2b254b	0.041783612
65	0xbe376f20	-0.17913485
66	0xbd2c5635	-0.0420744
67	0xbd28b22c	-0.041185543
68	0xbd40b77f	-0.047049996
69	0x3d5ebbf9	0.054378483
70	0x3e0a6b3c	0.13517469
71	0xbc83a8bd	-0.016071672
72	0x3b66c976	0.0035215295
73	0x3e09eccc	0.13469237
74	0x3d5d8f70	0.05409187
75	0xbe3a3804	-0.18185431
76	0x3e4ebf93	0.20190267
77	0x3da74f44	0.081694156
78	0xbd5f2c0b	-0.054485362
79	0xbde3d4ad	-0.11124549
80	0x3df86421	0.12128473
81	0x3d8fab18	0.070150554
82	0xbe165e35	-0.14684375
83	0xbd9c820c	-0.07641992
84	0xbd6a42b7	-0.05719253
85	0x3d79f928	0.06102863
86	0x3e1b83a3	0.15186934
87	0x3cb747c0	0.02237308
88	0x3e0ac4e8	0.13551676
89	0xbcdafa75	-0.026730755
90	0x3d66f974	0.05639024
91	0xbdb911a2	-0.09036566
92	0xbdb168b0	-0.08662546
93	0x3e21a4c4	0.1578551
94	0xbd50aa50	-0.050943673
95	0xbde68c9d	-0.112572886
96	0x3d814c46	0.06313376
97	0xbdc1ce28	-0.09463149
98	0xbc30fb4b	-0.0108021
99	0xbe005f6f	-0.12536405
100	0xbda72256	-0.08160846
101	0x3d736822	0.05942548
102	0x3db6d5df	0.089275114
103	0x3b4e48c3	0.0031476475
104	0x3d1dfcbb	0.0385711
105	0xbd7b4c8c	-0.061352298
106	0xbdd9989b	-0.1062481
107	0xbe0c0c59	-0.13676585
108	0xbe1c2666	-0.15249023
109	0xbdb81188	-0.08987719
110	0xbd8be301	-0.06830407
111	0xbddabb8f	-0.10680305
112	0x3d91c691	0.07117952
113	0xbdebf569	-0.11521418
114	0xbe1465ec	-0.14492005
115	0x3d29bc6b	0.041439455
116	0x3df99e06	0.12188344
117	0xbd1428fc	-0.0361719
118	0xbdac7557	-0.08420818
119	0xbe1d7275	-0.15375693
120	0xbcf08c3c	-0.029363744
121	0xbba89829	-0.005145092
122	0x3dfce8e3	0.12349107
123	0x3db073f4	0.08615866
124	0x3d99c8fe	0.07509039
125	0xbdb5c166	-0.088747784
126	0x3df237b3	0.1182703
127	0x3db80281	0.089848526
128	0x3db46758	0.08808774
129	0xbd6f638e	-0.058444552
130	0xbd24ca0b	-0.040231746
131	0xbd3d8650	-0.04627067
132	0x3d6f4c3b	0.05842231
133	0xbd4fb274	-0.050707296
134	0x3dd9b47d	0.106301285
135	0x3d8718d7	0.06596535
136	0x3d907e7a	0.070553735
137	0x3d35e475	0.044407327
138	0x3dc39a3a	0.09550901
139	0x3dcbefc1	0.09957839
140	0xbce2e2cd	-0.027696038
141	0x3d04489c	0.03229581
142	0xbad3608e	-0.0016126798
143	0x3d323bba	0.04351399
144	0x3da34908	0.07972914
145	0x3c882009	0.016616838
146	0xbd637d80	-0.055539608
147	0xbdc3d916	-0.0956289
148	0xbcb1de1c	-0.021712355
149	0xbe094bb2	-0.13407782
150	0xbce71e69	-0.028212743
151	0xbe1844cd	-0.14869995
152	0x3c328f46	0.010898417
153	0xbc0727ec	-0.008249264
154	0xbd2daddb	-0.04240213
155	0xbd357c20	-0.044307828
156	0xbdfe3835	-0.124130644
157	0x3d57c801	0.052680973
158	0x3c473bd9	0.012160265
159	0x3de8fccf	0.113763444
160	0xbdb801e2	-0.08984734
161	0xbdc6f10f	-0.09713947
162	0x3db7fa10	0.089832425
163	0xbe0f0383	-0.13966183
164	0x3dfe6460	0.12421489
165	0xbded0a99	-0.11574287
166	0xbe1bb58f	-0.15205978
167	0xbd52f8c4	-0.051506773
168	0x3e0a1148	0.13483155
169	0x3d4c4fa1	0.049880628
170	0x3e05ee2d	0.13079138
171	0xbda7eca3	-0.08199432
172	0x3c5df54c	0.013547253
173	0xbd974c0c	-0.07387552
174	0xbdd7e3a8	-0.10541469
